model/p_net1.tflite (tflite, 29484 bytes, 13 tensors)

conv2d/Conv2D_bias f4 [10]
-0.08283687 0.91978 1.1886699 0.08680683 -0.01940844 -0.031458907 0.13236046 -0.052203927
0.007651808 0.6673176
00000000: 60a6 a9bd b476 6b3f 5626 983f c7c7 b13d
00000010: 73fe 9ebc 0edb 00bd 8089 073e c9d3 55bd
00000020: 05bc fa3b 54d5 2a3f

conv2d/kernel f4 [10, 3, 3, 3]
-0.08164716 -0.2663099 -0.13688956 -0.015041245 0.29752547 0.101612985 0.124573864 0.10301049
-0.17933746 0.83591545 0.8521554 0.01641168 0.23798521 0.320185 0.4359 -0.4108176
-0.33211762 -0.103418455 1.2464966 0.5174389 0.033679444 -1.3452641 -1.0906495 -0.21637864
-0.5807721 -0.49633175 0.059704833 0.48790067 -0.4945682 -0.2957905 0.3251334 -0.1312943
0.23039098 0.78514 -0.25007442 -0.60144764 -0.874864 0.27103665 1.1879834 -0.7899603
-0.31626618 0.42563736 0.2713397 -0.1839706 -0.23094766 -2.4023557 1.1370491 1.2591369
-0.72439885 0.5234617 0.67422056 0.25449964 0.69139516 -0.9644063 -0.7042019 0.64413995
0.3933741 -0.054862108 0.5240095 -0.11159303 -0.53375006 0.5634151 0.71034175 0.18163557
0.26856723 -0.22909223 0.16692866 0.11958196 -0.428691 -0.09970634 0.094966255 -0.13392697
-0.36158386 0.3319612 0.31502733 0.20309944 0.35970327 -0.3119749 -0.23770422 0.31466246
0.111503854 -2.042076 -0.061987583 0.1861175 -1.3518381 -0.34683254 -0.35845998 0.27219638
-0.5114889 -0.09928328 -0.5307963 -0.12610707 -0.41665486 0.9714951 0.013289311 -0.30838865
1.1668916 0.1501645 0.19942707 0.16120936 0.58500177 -0.23634957 0.659265 0.5690419
0.325002 0.40014505 -0.23701157 0.8540823 -1.4440769 -1.1269826 -0.59174377 -0.8900413
-0.049205605 0.43708697 0.20784411 0.075863205 -0.09675966 3.115788 2.3380036 0.9547739
0.84461266 0.3375645 -0.5969129 0.2565784 0.053948935 -0.18393482 -1.2826006 -1.1374497
-0.5569294 -0.77952194 -0.4687658 0.38907766 -0.04832139 -0.020753892 0.21557489 -0.30975288
-0.36787382 -0.19868691 -1.2481064 -1.0780324 -0.56689006 -0.68574715 -0.6459348 0.31730798
1.108681 0.5855007 0.2181431 0.5375734 0.27793157 0.058724035 -0.40051556 -0.7225298
-0.40664688 0.22149056 0.13157032 0.41948262 0.7131647 0.663042 0.29146525 0.47752327
0.34077227 0.2406108 -0.5409197 0.21499255 -0.28774455 0.12310863 0.45208922 -0.0044987313
0.79804206 -0.92729086 0.42203245 -0.6874566 -0.121442296 -0.3037528 0.3843668 0.3731584
0.14538245 1.7603908 -0.43908328 0.47635084 -1.7550305 0.058410004 -0.07930606 -0.87358516
0.23668653 -0.21874121 1.1731586 -0.2046883 -0.21345752 1.0725912 -0.22563025 0.4017067
0.94492376 -0.10274804 0.28889853 0.8421167 -0.3428291 0.24086411 0.6264787 0.48706883
-0.16537747 1.0201669 0.58217376 0.3179296 0.5825422 0.251585 0.17362948 -1.7609195
-0.28732145 -0.47038868 -1.6218257 -0.35378125 -0.6669773 -1.6864873 0.08261069 -0.29777452
-0.95784664 -0.16833933 -0.35232985 1.9559071 0.74754226 0.5751093 -0.96243966 -0.5269202
-0.1618369 -1.280721 -0.8830202 -0.38415474 2.313938 1.3671495 0.6146076 -1.0256131
-0.66813993 -0.27905762 -0.77318025 -0.12744807 -0.21577251 1.2953728 0.5782112 0.27121478
-0.5686867 -0.3479561 -0.04423735 -0.5648355 2.332953 -1.3352611 -0.24465956 0.9318961
-0.9541894 0.005898455 0.120265834 -0.049981963 -1.543447 0.8324622 0.26984945 -0.5837737
00000000: a036 a7bd c559 88be c72c 0cbe 8e6f 76bc
00000010: 4255 983e 781a d03d 9520 ff3d 2af7 d23d
00000020: 3da4 37be 8efe 553f db26 5a3f ca71 863c
00000030: 65b2 733e 4aef a33e 492e df3e af56 d2be
00000040: 520b aabe 0ecd d3bd 338d 9f3f e076 043f
00000050: 75f3 093d 9d31 acbf 679a 8bbf 5d92 5dbe
00000060: 7bad 14bf 321f febe 0e8d 743d 1ece f93e
00000070: 0b38 fdbe da71 97be e377 a63e 0372 06be
00000080: 9deb 6b3e effe 483f c109 80be 79f8 19bf
00000090: 16f7 5fbf 51c5 8a3e d70f 983f d73a 4abf
000000a0: a4ed a1be 24ed d93e 0aed 8a3e ca62 3cbe
000000b0: 8b7d 6cbe 32c0 19c0 d38a 913f 662b a13f
000000c0: 3472 39bf 9601 063f b899 2c3f c74d 823e
000000d0: 46ff 303f 55e3 76bf 9346 34bf 5be6 243f
000000e0: 5468 c93e 17b7 60bd 7d25 063f e38a e4bd
000000f0: d8a3 08bf f93b 103f f5d8 353f adfe 393e
00000100: a581 893e 2797 6abe 59ef 2a3e 63e7 f43d
00000110: 637d dbbe d632 ccbd ab7d c23d 2724 09be
00000120: 8521 b9be d2f6 a93e 434b a13e 4df9 4f3e
00000130: 072b b83e 2dbb 9fbe bc68 73be 701b a13e
00000140: 225c e43d 60b1 02c0 b1e6 7dbd 9695 3e3e
00000150: 0809 adbf 0994 b1be 1188 b7be 535d 8b3e
00000160: f0f0 02bf 0855 cbbd 44e2 07bf 3622 01be
00000170: c953 d5be e7b3 783f 69bb 593c 1ee5 9dbe
00000180: b45c 953f b9c4 193e 9c36 4c3e 1114 253e
00000190: adc2 153f 9f05 72be 97c5 283f bbac 113f
000001a0: aa66 a63e d0df cc3e 29b3 72be 23a5 5a3f
000001b0: 83d7 b8bf f740 90bf 857c 17bf bfd9 63bf
000001c0: d18b 49bd ddc9 df3e 16d5 543e 2b5e 9b3d
000001d0: ee29 c6bd 1269 4740 daa1 1540 106c 743f
000001e0: 8938 583f 41d5 ac3e 49cf 18bf 3e5e 833e
000001f0: 8ff9 5c3d 6959 3cbe 422c a4bf f497 91bf
00000200: ed92 0ebf c08e 47bf 1202 f0be 3035 c73e
00000210: a6ec 45bd 1104 aabc aabf 5c3e ee97 9ebe
00000220: f559 bcbe 9574 4bbe f3c1 9fbf f7fc 89bf
00000230: b51f 11bf 208d 2fbf fc5b 25bf 3176 a23e
00000240: 42e9 8d3f 60e3 153f e860 5f3e 699e 093f
00000250: 0c4d 8e3e 9d88 703d 6010 cdbe b7f7 38bf
00000260: 0534 d0be 6cce 623e 5fba 063e 6dc6 d63e
00000270: f691 363f 1fbd 293f ef3a 953e ee7d f43e
00000280: b479 ae3e ad62 763e b779 0abf 0227 5c3e
00000290: 4153 93be 6120 fc3d 3d78 e73e 186a 93bb
000002a0: 7c4c 4c3f ef62 6dbf a314 d83e 28fd 2fbf
000002b0: bdb6 f8bd 7d85 9bbe bacb c43e 9e0e bf3e
000002c0: 23df 143e 7c54 e13f 86cf e0be 42e4 f33e
000002d0: d7a4 e0bf 543f 6f3d 376b a2bd 47a3 5fbf
000002e0: f45d 723e b2fd 5fbe 102a 963f cf99 51be
000002f0: 9c94 5abe ab4a 893f 9e0b 67be 80ac cd3e
00000300: 86e6 713f 906d d2bd 82ea 933e f694 573f
00000310: 4c87 afbe 15a5 763e e860 203f 1661 f93e
00000320: b658 29be d494 823f 5709 153f abc7 a23e
00000330: 7c21 153f c0cf 803e edcb 313e cf65 e1bf
00000340: cc1b 93be c9d6 f0be fc97 cfbf d122 b5be
00000350: 06bf 2abf d1de d7bf cb2f a93d e775 98be
00000360: 7035 75bf 2561 2cbe 9464 b4be 2a5b fa3f
00000370: ee5e 3f3f 5d3a 133f 7262 76bf 3ee4 06bf
00000380: 93b8 25be aaee a3bf 9d0d 62bf eeaf c4be
00000390: 8f17 1440 c1fe ae3f ec56 1d3f 4a47 83bf
000003a0: 380b 2bbf a4e0 8ebe 24ef 45bf bf81 02be
000003b0: 78f3 5cbe c7ce a53f a605 143f aadc 8a3e
000003c0: 7495 11bf 4d27 b2be 3932 35bd 0f99 10bf
000003d0: 1a4f 1540 d6e9 aabf 0988 7abe be90 6e3f
000003e0: c245 74bf d447 c13b ef4d f63d e3b9 4cbd
000003f0: ac8f c5bf 3e1c 553f b529 8a3e 3172 15bf

conv2d_1/Conv2D_bias f4 [16]
1.0205368 2.4875836 2.362585 0.42109942 1.0208588 1.5332694 2.4107158 2.399518
0.7381942 0.18999194 0.31878242 0.36088374 1.7095778 -0.120232366 0.59946537 2.7174163
00000000: f3a0 823f 9234 1f40 9834 1740 589a d73e
00000010: 80ab 823f 2c42 c43f 2b49 1a40 b491 1940
00000020: 4cfa 3c3f 3f8d 423e 7337 a33e c1c5 b83e
00000030: 72d3 da3f 633c f6bd 9076 193f 26ea 2d40

conv2d_1/kernel f4 [16, 3, 3, 10]
-0.11650129 -0.023393825 -0.09179004 0.3385483 0.48104623 -0.2504281 0.005740299 0.018207226
-0.034609854 0.00046892097 -0.38356358 0.2945243 0.2523231 -0.11047007 0.17634244 0.1924165
-0.36632013 0.0735626 0.33673587 0.22889674 -0.57860214 0.24030495 0.41191274 0.22118059
0.055645835 -0.032995775 0.25607765 0.10247386 0.31478423 0.24768415 0.3188821 0.038583666
0.14222096 -0.6313649 -0.0126678515 0.1751127 0.2205653 -0.1574006 0.18059908 0.07100893
0.028761616 0.13734145 -0.03914347 0.070206776 -0.19908805 0.4349177 0.75983435 -0.22041927
0.05587251 0.09695491 -0.50348806 -0.43053302 -0.3569859 -0.6073693 -0.12028268 -0.0040709814
-0.29512328 -0.23558103 0.27391252 -0.2714683 -0.34135288 -0.2931793 -0.0046436125 0.5647554
0.03613771 0.08075434 0.048065826 0.05917896 -0.15600033 -0.24296866 -0.29149538 -0.15369524
0.31627017 -0.30165854 -0.40328613 -0.03448356 -0.26336724 0.51133716 -0.5138315 0.09522634
0.8359498 0.026887039 -0.46475446 0.5066118 -0.40278476 -0.1205759 -1.7909627 0.26748872
-1.3409357 -0.047881402 -0.24365418 -0.65530455 -0.59657943 -0.3854209 0.067559846 0.43593422
0.030394752 0.13733017 -0.09050414 -1.0443056 -0.046447136 0.009943563 0.778088 -0.24236923
-0.10071305 0.38416627 0.12271689 0.05856435 -0.10034055 0.39613074 0.008769119 -0.12268289
-0.00733489 -0.070217274 -0.11468293 0.102244765 0.16949528 -0.016769506 -0.037208833 0.22747645
0.36972836 -0.33781874 -0.396945 -0.17574109 0.025551548 0.021276288 0.049117126 -0.1537626
0.5262705 -0.3598621 0.260724 -0.18218316 0.41333625 -0.21919781 -0.5236618 0.065878876
-0.11573929 -0.17329279 0.30103007 -0.15537329 0.0016532758 -0.2997416 0.12885785 -0.123951845
-0.390574 0.09372515 0.0648803 -0.040972844 0.06664687 0.054596446 0.15042038 -1.0103321
-0.6426095 0.21596871 0.13402034 0.08189402 -0.6579062 0.30915117 -0.15120415 -0.8602693
0.2786075 0.13566178 0.6180803 0.09560001 -0.18494114 -0.12807813 -0.33544898 0.1082292
-0.12870625 -0.05990228 0.28454474 0.20075727 0.12084292 0.1561776 -0.1553879 -0.15019193
-0.06553291 -0.0644187 -0.013647147 0.11545141 -0.10232766 -0.022735571 0.64573556 0.16666032
-0.09995206 -0.15594181 -0.17510752 -0.15441687 0.041240487 0.19998464 -0.00018311798 -0.02755002
-0.1142295 0.009405056 0.13457933 -0.024223324 -0.012896508 -0.07969063 0.029581048 0.094343804
-0.011044093 0.2824079 0.6060857 0.1778085 0.23686115 0.109746724 -0.11749886 -0.037965942
0.026709355 0.5313507 -0.3190095 0.07187237 0.26513284 0.06624192 0.0843727 0.15768205
0.0040281215 -0.26969588 -0.013031775 -0.057364114 -0.112921804 -0.07599511 -0.39728492 -0.05213278
0.0842356 -0.005096699 -0.2239118 -0.028409876 0.084036 0.0069372063 0.023691148 0.20795645
-0.007434687 0.05651799 0.21327385 0.035979338 -0.052230045 -0.16884965 0.010478177 -0.036288504
0.30190662 -1.1587365 -0.47011912 0.067861296 -0.3631361 -0.42993137 -0.270701 -0.8448685
0.3032356 -0.8586723 0.15822846 -0.29771057 -0.38958904 -0.11385653 0.050666545 0.030287672
00000000: 3a98 eebd 68a4 bfbc 6bfc bbbd 3456 ad3e
00000010: b14b f63e 1d38 80be 1e19 bc3b 5227 953c
00000020: 10c3 0dbd 82d9 f539 7262 c4be e4cb 963e
00000030: 7e30 813e 223e e2bd 1d93 343e d508 453e
00000040: 508e bbbe fda7 963d a568 ac3e e863 6a3e
00000050: 451f 14bf 8012 763e 3ae6 d23e 2a7d 623e
00000060: e3ec 633d 9426 07bd 9c1c 833e d1dd d13d
00000070: 662b a13e eaa0 7d3e 8444 a33e e809 1e3d
00000080: 5fa2 113e 21a1 21bf d28c 4fbc be50 333e
00000090: dfdb 613e 9f2d 21be f7ee 383e 216d 913d
000000a0: 7b9d eb3c 3da3 0c3e e754 20bd 92c8 8f3d
000000b0: bddd 4bbe 88ad de3e 8184 423f 97b5 61be
000000c0: 93da 643d 4c90 c63d 98e4 00bf d36e dcbe
000000d0: dbc6 b6be 8e7c 1bbf c456 f6bd de65 85bb
000000e0: 661a 97be 273c 71be 433e 8c3e e5fd 8abe
000000f0: cec5 aebe 991b 96be 7229 98bb cf93 103f
00000100: 2305 143d 8862 a53d ace0 443d a365 723d
00000110: 8dbe 1fbe c7cc 78be e23e 95be 4962 1dbe
00000120: 2aee a13e fd72 9abe 857b cebe a23e 0dbd
00000130: 12d8 86be fee6 023f 768a 03bf 0706 c33d
00000140: ce00 563f 3542 dc3c 4cf4 edbe 50b1 013f
00000150: ce39 cebe 7ff0 f6bd 443e e5bf 48f4 883e
00000160: c8a3 abbf 4a1f 44bd 7b80 79be 0ac2 27bf
00000170: 6eb9 18bf e355 c5be d15c 8a3d c532 df3e
00000180: 6afe f83c 48a0 0c3e 3c5a b9bd ceab 85bf
00000190: 5a3f 3ebd 53ea 223c c630 473f a42f 78be
000001a0: a542 cebd 71b1 c43e fe52 fb3d 2ce1 6f3d
000001b0: 597f cdbd a6d1 ca3e 5aac 0f3c 2b41 fbbd
000001c0: 8459 f0bb 13ce 8fbd e2de eabd b465 d13d
000001d0: 2c90 2d3e 3460 89bc 4a68 18bd 96ef 683e
000001e0: 094d bd3e 94f6 acbe 603c cbbe 79f5 33be
000001f0: 7b51 d13c 9c4b ae3c 0a2f 493d f173 1dbe
00000200: aab9 063f d83f b8be 9e7d 853e 398e 3abe
00000210: cfa0 d33e 6475 60be b30e 06bf 81eb 863d
00000220: b908 edbd aa73 31be 9d20 9a3e 2d1a 1fbe
00000230: bbb2 d83a bb77 99be 50f3 033e 77da fdbd
00000240: 51f9 c7be f9f2 bf3d f6df 843d 24d3 27bd
00000250: 277e 883d 86a0 5f3d cd07 1a3e 9052 81bf
00000260: 0e82 24bf e726 5d3e a13c 093e 0db8 a73d
00000270: 8a6c 28bf 1049 9e3e 43d5 1abe 9c3a 5cbf
00000280: a4a5 8e3e ecea 0a3e 833a 1e3f f0c9 c33d
00000290: 3661 3dbe ea26 03be f8bf abbe 45a7 dd3d
000002a0: 92cb 03be 185c 75bd d9af 913e 5093 4d3e
000002b0: 7e7c f73d 05ed 1f3e 011e 1fbe eacb 19be
000002c0: 1e36 86bd f4ed 83bd 4998 5fbc ca71 ec3d
000002d0: 2a91 d1bd f33f babc ed4e 253f 01a9 2a3e
000002e0: aab3 ccbd 36af 1fbe 634f 33be 751f 1ebe
000002f0: c9eb 283d c6c8 4c3e 5c03 40b9 94b0 e1bc
00000300: 28f1 e9bd aa17 1a3c 2acf 093e fe6f c6bc
00000310: e04b 53bc d734 a3bd f453 f23c 5337 c13d
00000320: 49f2 34bc c597 903e 6f28 1b3f 6e13 363e
00000330: bb8b 723e e4c2 e03d 3ea3 f0bd 2d82 1bbd
00000340: 94cd da3c 9906 083f 3755 a3be d231 933d
00000350: 7ebf 873e d8a9 873d 98cb ac3d 6777 213e
00000360: 55fe 833b 9415 8abe 3a83 55bc a2f6 6abd
00000370: 8c43 e7bd 53a3 9bbd ee68 cbbe 2f89 55bd
00000380: b783 ac3d 3602 a7bb 2349 65be d4bb e8bc
00000390: 111b ac3d 8151 e33b f013 c23c 89f2 543e
000003a0: ad9e f3bb 687f 673d 7664 5a3e 125f 133d
000003b0: 2cef 55bd ece6 2cbe a9ac 2b3c 41a3 14bd
000003c0: 8193 9a3e 7a51 94bf 74b3 f0be ddfa 8a3d
000003d0: faec b9be f71f dcbe 5299 8abe 4d49 58bf
000003e0: b241 9b3e f3d1 5bbf a406 223e 856d 98be
000003f0: 3778 c7be 9d2d e9bd b987 4f3d da1d f83c

conv2d_2/Conv2D_bias f4 [32]
-0.08974096 1.7315077 1.2942436 -1.7772006 0.39659822 0.53424066 1.3453066 0.77187645
0.78774214 0.31239814 -0.3792561 -0.29494852 1.8633876 0.8148971 1.5000163 -1.5154808
-0.7155806 -0.48414493 -0.613898 1.4699644 1.3718977 0.79904944 0.9194095 0.88396406
0.8512288 0.9962438 -0.31869692 -0.21597973 0.91254216 0.59719604 0.77093184 0.38524002
00000000: 1cca b7bd 0ba2 dd3f c6a9 a53f 4f7b e3bf
00000010: ec0e cb3e ffc3 083f 0233 ac3f b299 453f
00000020: 78a9 493f a6f2 9f3e db2d c2be 7e03 97be
00000030: 7c83 ee3f 199d 503f 8900 c03f 46fb c1bf
00000040: 4a30 37bf d8e1 f7be 6b28 1dbf cb27 bc3f
00000050: 589a af3f 818e 4c3f 6c5e 6b3f 784b 623f
00000060: 21ea 593f d509 7f3f 3e2c a3be ca29 5dbe
00000070: 5d9c 693f d7e1 183f ca5b 453f 2e3e c53e

conv2d_2/kernel f4 [32, 3, 3, 16]
0.0660219 0.13737181 -0.42901888 0.05447327 0.026616149 0.1066462 0.06847994 0.4018296
0.06570556 -0.097853914 0.015103276 0.009884845 0.15122573 0.11110594 0.027494112 0.20710176
0.13411468 0.0062584733 -0.13486288 0.0010965873 0.0655216 -0.20105186 0.12541743 0.16296096
0.010435003 -0.07645179 -0.20886303 -0.10836212 -0.057337366 0.027875 -0.009174441 0.2097223
-0.124753386 0.229078 -0.5725048 0.07751076 -0.17070922 0.13675004 0.060607452 0.14844638
0.10319793 0.015987076 -0.115450524 0.017712392 -0.009183962 0.101448305 0.0274731 0.27579385
0.4602042 -0.052038535 -0.3349352 -0.12205008 0.22076501 0.18288973 0.17809743 -0.024138726
-0.13004409 -0.059360534 0.09728863 -0.14988846 0.04615574 0.15509945 0.063844 -0.08534274
0.36613876 0.048935216 -0.09178094 -0.14300442 0.15678523 -0.032682106 -0.16616873 0.09419881
-0.14361879 -0.09261548 0.062341385 -0.049547877 -0.17721996 0.14572191 0.061362732 -0.16159889
0.20027189 0.10317655 -0.052329224 -0.05356523 0.23495439 -0.15350401 -0.061337963 0.0701256
-0.1198539 0.07108298 -0.09395999 -0.06052791 -0.12707724 0.15414274 0.037280317 -0.018371139
0.39040023 -0.18883549 -0.23080285 0.033869576 0.26238915 0.088472955 0.24961236 -0.06132688
-0.12258259 -0.06941407 -0.029677127 0.09656364 -0.0140946135 0.07684667 0.25720814 -0.109410204
0.2534391 -0.08943378 -0.06644588 -0.014516679 0.054191604 0.07202952 -0.14242105 -0.042804305
0.1444504 0.053317733 0.009455152 0.0720118 -0.20391154 0.058301542 0.14356478 -0.07196369
0.34655082 -0.07408228 0.041834872 -0.07075564 0.0862609 -0.1540647 0.037908427 -0.049810667
-0.23431274 0.06812248 0.17513812 0.078513265 0.09573719 0.12578769 0.08986525 -0.24641235
-0.010183448 0.05391751 -0.13181253 0.052027825 -0.06636953 0.067349516 0.05281273 -0.101246886
0.190942 -0.2785639 0.021054711 -0.16562751 0.080944695 -0.09562931 0.008688197 -0.14632459
-0.02925725 -0.05378397 0.10915761 0.013008787 0.0047682365 0.05324063 0.10840116 -0.073726416
0.1342579 -0.11478417 -0.11954755 -0.13077942 0.076640904 -0.13924082 0.1780328 0.06933233
0.02105157 0.033578962 0.11498893 -0.046922453 0.034845755 0.069974944 -0.11217754 0.009884412
0.24052235 -0.028474685 0.0020582022 -0.020428656 -0.0888593 -0.041822024 0.06757682 -0.071248144
-0.015771499 0.065188274 -0.055379968 -0.04401346 -0.027298663 0.107360445 0.15624385 -0.023348646
-0.33496273 -0.20656057 -0.05559769 -0.039421655 0.010595625 -0.1550826 0.17805889 -0.21492961
-0.016155116 -0.029271152 -0.011928865 -0.02755877 -0.17169052 -0.05172312 0.091361456 0.066669635
-0.21755259 -0.18845496 -0.13456263 0.013450643 -0.2449777 0.021856172 0.03334922 0.08322748
-0.03215047 0.09077966 0.06958385 -0.089678824 -0.0042361785 -0.24656291 -0.14800867 -0.13849266
-0.37110695 -0.09992321 0.017594919 0.067458235 -0.044024114 -0.111140445 -0.08792656 -0.09731687
-0.07401339 -0.22970493 0.046774305 -0.14570408 0.056242842 -0.086868435 0.2607078 -0.0031198836
0.28549632 -0.10975604 0.055037994 -0.0503524 0.008818084 -0.02730346 0.034345232 0.21543778
00000000: 7d36 873d 32ab 0c3e 5da8 dbbe 5d1f 5f3d
00000010: 1c0a da3c 5369 da3d 363f 8c3d 9cbc cd3e
00000020: a390 863d a267 c8bd bb73 773c 0cf4 213c
00000030: ebda 1a3e 838b e33d 553b e13c 7c12 543e
00000040: 5c55 093e e113 cd3b 7f19 0abe 5dbb 8f3a
00000050: 3030 863d 8ae0 4dbe 6d6d 003e 3ddf 263e
00000060: 93f7 2a3c c292 9cbd 31e0 55be f6ec ddbd
00000070: 96da 6abd 1d5a e43c 6550 16bc 71c1 563e
00000080: b47e ffbd 6c93 6a3e ad8f 12bf f6bd 9e3d
00000090: 66ce 2ebe 3408 0c3e 853f 783d 5402 183e
000000a0: 7059 d33d 54f7 823c 5371 ecbd 9419 913c
000000b0: 5478 16bc 21c4 cf3d 440f e13c da34 8d3e
000000c0: e39f eb3e 5c26 55bd a07c abbe 64f5 f9bd
000000d0: 3910 623e 7247 3b3e 2c5f 363e 94be c5bc
000000e0: 472a 05be 0824 73bd 433f c73d 5c7c 19be
000000f0: cd0d 3d3d 64d2 1e3e a5c0 823d 2dc8 aebd
00000100: 8a76 bb3e 4b70 483d a5f7 bbbd c06f 12be
00000110: 4f8c 203e acdd 05bd 2328 2abe 4eeb c03d
00000120: ce10 13be 2fad bdbd ae59 7f3d b7f2 4abd
00000130: 2679 35be 2038 153e 7d57 7b3d 2e7a 25be
00000140: 1314 4d3e 3a4e d33d 2b57 56bd 3767 5bbd
00000150: e297 703e 2830 1dbe 843d 7bbd 039e 8f3d
00000160: f675 f5bd f493 913d 186e c0bd 1dec 77bd
00000170: 8920 02be 98d7 1d3e 3fb3 183d 127f 96bc
00000180: 8ae2 c73e 175e 41be 9557 6cbe d3ba 0a3d
00000190: df57 863e 4f31 b53d 629a 7f3e e531 7bbd
000001a0: 950c fbbd f728 8ebd 721d f3bc 28c3 c53d
000001b0: 18ed 66bc c961 9d3d c9b0 833e 7512 e0bd
000001c0: c5c2 813e 0f29 b7bd c714 88bd 5dd7 6dbc
000001d0: 04f8 5d3d 3784 933d d3d6 11be 9153 2fbd
000001e0: ceea 133e b263 5a3d c8e9 1a3c ec7a 933d
000001f0: 30ce 50be 99cd 6e3d a502 133e b361 93bd
00000200: 1c6f b13e 73b8 97bd 0b5b 2b3d 55e8 90bd
00000210: 8ea9 b03d 23c3 1dbe de45 1b3d 4506 4cbd
00000220: aeef 6fbe cc83 8b3d 6857 333e 90cb a03d
00000230: dc11 c43d 7dce 003e 460b b83d 8553 7cbe
00000240: 7ad8 26bc 9bd8 5c3d ddf9 06be 211b 553d
00000250: c0ec 87bd 8bee 893d 2952 583d 875a cfbd
00000260: 4d86 433e ed9f 8ebe ee7a ac3c 429a 29be
00000270: 55c6 a53d 4dd9 c3bd f058 0e3c 1dd6 15be
00000280: e6ac efbc 954c 5cbd 068e df3d cf22 553c
00000290: de3e 9c3b d912 5a3d 6d01 de3d e0fd 96bd
000002a0: e77a 093e f713 ebbd 59d5 f4bd 0aeb 05be
000002b0: e8f5 9c3d 2595 0ebe 3b4e 363e 1cfe 8d3d
000002c0: 5874 ac3c 188a 093d 517f eb3d c231 40bd
000002d0: 6cba 0e3d 064f 8f3d 57bd e5bd 3bf2 213c
000002e0: 7e4b 763e be43 e9bc e7e2 063b ff59 a7bc
000002f0: ddfb b5bd 924d 2bbd b765 8a3d 8cea 91bd
00000300: 3b33 81bc 6e81 853d 1bd6 62bd 7547 34bd
00000310: 72a1 dfbc cbdf db3d 63fe 1f3e a945 bfbc
00000320: 3c80 abbe 9d84 53be 67ba 63bd 9a78 21bd
00000330: 4699 2d3c f9cd 1ebe 1255 363e 8216 5cbe
00000340: bc57 84bc 0eca efbc 4971 43bc eec2 e1bc
00000350: a4cf 2fbe 9fdb 53bd b71b bb3d 178a 883d
00000360: 1bc6 5ebe 56fa 40be c9ca 09be 1660 5c3c
00000370: 6fdb 7abe b70b b33c 3199 083d 2b73 aa3d
00000380: 36b0 03bd b0ea b93d fa81 8e3d 88a9 b7bd
00000390: a4cf 8abb fd7a 7cbe 968f 17be 05d1 0dbe
000003a0: bb01 bebe 8aa4 ccbd 3823 903c 8b27 8a3d
000003b0: a152 34bd 9a9d e3bd d712 b4bd 114e c7bd
000003c0: 5594 97bd c537 6bbe 6a96 3f3d 7333 15be
000003d0: e55e 663d 14e8 b1bd 7e7b 853e f676 4cbb
000003e0: 932c 923e c6c7 e0bd 856f 613d 513e 4ebd
000003f0: ba79 103c 81ab dfbc 96ad 0c3d b99b 5c3e

conv2d_3/Conv2D_bias f4 [2]
0.0005302674 -0.00050768396
00000000: a501 0b3a 1816 05ba

conv2d_3/kernel f4 [2, 1, 1, 32]
0.072510906 0.11779202 -0.55614424 0.051559664 0.18582171 -0.037323438 0.13541308 -0.060478363
-0.45543322 0.31324244 0.18698883 -0.3060086 0.01878135 0.12326522 0.36005944 0.20265052
0.36845294 -0.0018827242 -0.29688394 0.18122454 -0.36095107 -0.07978098 -0.14076445 -0.18155155
-0.29624227 0.2476349 0.25885695 -0.016116682 -0.3567324 -0.20572798 0.11427982 0.63437337
-0.34288386 -0.28878102 0.1792806 -0.34318313 -0.24320585 0.41307792 -0.24898264 -0.2353749
0.20441554 -0.116793685 -0.478733 0.24353555 -0.50504345 0.0183339 -0.20334229 -0.3694562
-0.13615476 -0.22655138 0.10403783 -0.25883245 0.2061776 0.42957056 0.4576686 0.31827313
0.55430454 -0.33139467 -0.4169605 0.14995196 0.57752395 0.3029078 -0.2109747 -0.04137005
00000000: 9980 943d f13c f13d 785f 0ebf 3a30 533d
00000010: 0c48 3e3e 76e0 18bd baa9 0a3e 29b8 77bd
00000020: 8b2e e9be 5061 a03e 007a 3f3e 29ad 9cbe
00000030: 59db 993c 7a72 fc3d b659 b83e 9e83 4f3e
00000040: dda5 bc3e bec5 f6ba 2c01 98be ed92 393e
00000050: 94ce b8be 3664 a3bd 8e24 10be a6e8 39be
00000060: 11ad 97be 0194 7d3e e688 843e 2207 84bc
00000070: a1a5 b6be 5baa 52be 8a0b ea3d 4b66 223f
00000080: 798e afbe 1bdb 93be 5595 373e b3b5 afbe
00000090: f40a 79be f37e d33e 4ef5 7ebe 1e06 71be
000000a0: 4f52 513e 8731 efbd 7e1c f5be 6261 793e
000000b0: 874a 01bf fa30 963c f638 50be 5d29 bdbe
000000c0: 276c 0bbe 16fd 67be c911 d53d b085 84be
000000d0: 3920 533e acf0 db3e 8a53 ea3e b2f4 a23e
000000e0: e7e6 0d3f 90ac a9be d97b d5be 028d 193e
000000f0: 9cd8 133f bb16 9b3e c009 58be a473 29bd

conv2d_4/Conv2D_bias f4 [4]
0.021560501 -0.04285 -0.06107179 -0.012187507
00000000: a69f b03c 7b83 2fbd 6a26 7abd 1cae 47bc

conv2d_4/kernel f4 [4, 1, 1, 32]
-0.00586978 0.015570961 0.0050030346 -0.0039437064 0.0028995636 0.03431444 -0.0025198706 -0.018842675
-0.014383183 -0.010140391 0.0020193849 0.006581105 -0.0061221872 -0.009226755 -0.0004896168 0.0027407706
-0.008607705 0.19816193 -0.044808794 -0.048051897 0.002379544 -0.0008801091 -0.0109122805 0.006154577
-0.0048703947 0.0025775856 -0.039006595 -0.1589262 0.0039410833 0.0070647034 0.00510552 0.030154765
-0.008644244 0.009464579 0.0050726137 -0.0075755278 0.0007820607 0.0017921039 -0.055285085 0.040634237
-0.00600044 -0.016815674 -0.0039701248 0.010910606 0.0006775808 0.07571588 0.00019428873 0.00704953
-0.006151215 0.19219996 -0.12689671 -0.015193778 0.0056496235 -0.004340756 -0.019992683 0.009477746
-0.003946786 0.0077429186 -0.09413426 0.09157157 0.0040425463 0.0045780307 0.003089144 -0.023154903
0.004608509 0.0184925 -0.008930697 0.010023805 0.0041173003 0.0069408407 0.008712695 -0.09925742
0.014481928 0.0043910937 0.016491897 -0.0055968366 0.005002973 0.009736814 0.0013301839 0.0013559912
0.009439101 0.0712695 0.13618985 -0.0045291195 -0.00497042 0.0021635967 0.008080587 -0.004358728
0.004370611 0.02382212 -0.14025281 -0.05461369 -0.0013538792 -0.004031579 -0.0011793829 0.046908516
0.0059490833 0.015567248 -0.007865342 0.009067528 0.002348254 -0.034921903 -0.045421585 -0.039146118
0.03934665 -9.116549e-05 0.019363053 -0.011810471 0.009478026 0.117787994 0.001411494 0.0053135967
0.0061464026 -0.057949677 -0.048868302 0.02546001 -0.007305305 0.008334585 0.0054342826 -0.005966027
0.010836923 0.021892952 -0.13117275 0.15696989 0.0032402556 -0.007252757 -0.0041594827 0.018483736
00000000: 4957 c0bb 581d 7f3c 7ff0 a33b 353a 81bb
00000010: 9b06 3e3b 4c8d 0c3d 6a24 25bb f45b 9abc
00000020: 71a7 6bbc e223 26bc a857 043b 4fa6 d73b
00000030: a19c c8bb d12b 17bc a159 00ba 809e 333b
00000040: 5507 0dbc f6ea 4a3e 6d89 37bd 11d2 44bd
00000050: 20f2 1b3b 1fb7 66ba 6cc9 32bc 55ac c93b
00000060: d597 9fbb b6ec 283b 61c5 1fbd 8dbd 22be
00000070: 3424 813b 077f e73b 354c a73b 2007 f73c
00000080: 96a0 0dbc 5211 1b3c 2b38 a63b 223c f8bb
00000090: 3503 4d3a 07e5 ea3a 9d72 62bd 1670 263d
000000a0: 579f c4bb 06c1 89bc d217 82bb 66c2 323c
000000b0: ae9f 313a ed10 9b3d fcb9 4b39 beff e63b
000000c0: 2290 c9bb 11d0 443e 36f1 01be 53ef 78bc
000000d0: 7a20 b93b e73c 8ebb b2c7 a3bc 8c48 1b3c
000000e0: 0a54 81bb 4fb8 fd3b 77c9 c0bd e089 bb3d
000000f0: 5677 843b 4e03 963b 3c73 4a3b 5aaf bdbc
00000100: fa02 973b 957d 973c 0f52 12bc e33a 243c
00000110: 6bea 863b fe6f e33b b1bf 0e3c 7947 cbbd
00000120: 9c45 6d3c 2ae3 8f3b 041a 873c ab65 b7bb
00000130: fbef a33b 2887 1f3c 9159 ae3a 84bb b13a
00000140: 76a6 1a3c bef5 913d 5a75 0b3e 0269 94bb
00000150: e8de a2bb 21cb 0d3b 7064 043c a9d3 8ebb
00000160: 5837 8f3b 9b26 c33c 6f9e 0fbe 9bb2 5fbd
00000170: a674 b1ba 561b 84bb 8695 9aba 2523 403d
00000180: 87f0 c23b c50d 7f3c a3dd 00bc f88f 143c
00000190: 2ae5 193b 450a 0fbd fc0b 3abd ae57 20bd
000001a0: f429 213d 1a30 bfb8 449f 9e3c b580 41bc
000001b0: b949 1b3c d53a f13d e101 b93a ae1d ae3b
000001c0: c367 c93b a45c 6dbd 212a 48bd 8391 d03c
000001d0: 5761 efbb c98d 083c 1112 b23b a97e c3bb
000001e0: 598d 313c d958 b33c 2652 06be b7bc 203e
000001f0: 785a 543b 89a8 edbb 454c 88bb 346b 973c

p_re_lu/Neg_neg f4 [1, 1, 10]
-0.6254063 -0.2116809 1.0116835 0.4411206 -1.0347496 0.32151404 -0.2978908 0.2518868
-0.8827362 -1.2783165
00000000: a11a 20bf e1c2 58be d87e 813f 8fda e13e
00000010: ad72 84bf 7d9d a43e 2585 98be 4ff7 803e
00000020: 00fb 61bf e09f a3bf

p_re_lu_1/Neg_neg f4 [1, 1, 16]
0.06700239 0.20469856 0.25214297 0.04139845 0.194512 0.30079356 0.4249724 0.43376476
0.17539869 -0.52597237 0.12982914 0.1899089 -0.001037411 -0.15794416 -0.21194506 -0.058352172
00000000: 8d38 893d 809c 513e e218 813e 6c91 293d
00000010: 272e 473e 9d01 9a3e fb95 d93e 6a16 de3e
00000020: b79b 333e 20a6 06bf eef1 043e 7b77 423e
00000030: bdf9 87ba 1dbc 21be 2008 59be b002 6fbd

p_re_lu_2/Neg_neg f4 [1, 1, 32]
0.05278217 -0.051092267 0.09215743 -0.3572355 -0.33020404 -0.13361523 -0.0050724987 0.054609817
-0.020330127 -0.024305254 0.088121876 -0.29867643 -0.24016388 0.15476495 0.18755716 -0.0719236
-0.23321892 0.24234232 0.284274 -0.02913167 -0.41264635 -0.020593096 -0.08857681 -0.20173849
0.0038843164 0.687832 0.31409132 0.24745153 0.06283658 -0.18418022 -0.13191012 0.22450298
00000000: 1e32 583d 2046 51bd 09bd bc3d 92e7 b6be
00000010: 8110 a9be 6ed2 08be 3437 a6bb 8bae 5f3d
00000020: 5e8b a6bc d01b c7bc 3e79 b43d 1eec 98be
00000030: 85ed 75be b47a 1e3e fc0e 403e ae4c 93bd
00000040: f1d0 6ebe 9628 783e 5d8c 913e 8aa5 eebc
00000050: 6246 d3be dab2 a8bc c267 b5bd 8994 4ebe
00000060: 0490 7e3b c215 303f 94d0 a03e ef63 7d3e
00000070: 77b0 803d bd99 3cbe 7213 07be 1ce4 653e
